pytorch_models/TD3_cheetah_run_0_actor.pth (torch, 519976 bytes, 6 tensors)

layer_1.weight f4 [400, 17]
00000000: ae39 1240 c56e 3bbf 7a13 18bf 542d 80bf
00000010: 0bf0 b33e 25a6 3740 fbbe df3f 49bb 163f
00000020: 6869 713e 550c 8bbe 7d90 13bf b990 98be
00000030: 8cbd 4ebe 58c6 173d b615 d4bd 1008 7cbd
00000040: 98f7 bd3c 4c6e 543f 339c 51c0 59c1 b83f
00000050: e95d 8abe ed5d 583f 721c abbf 63d2 70bd
00000060: a8e9 38bf 6ced f4bf c4d3 563f f8d1 b1be
00000070: 9e5a e8bb 2f86 4fbe 1a2c 21bd fff1 be3e
00000080: 1503 72bd a3ec 29be 92d0 21be 8fc8 22c0
00000090: bbcd 8a3f 4873 173e 3229 17bf 76e1 6940
000000a0: 2bd2 28c0 8967 bc3f 6cde 8fbe 3995 cc3e
000000b0: 6a8a b03e 18df d7bd 7d6e 9abb 5f96 46be
000000c0: 4d2b 0cbd 3123 9e3d 231a bdbd 0882 59bf
000000d0: e697 a93f 0f88 b73f 893b 24be f8f9 693e
000000e0: 2d0a 1240 7673 663d 3442 b83f 3139 b3bf
000000f0: 45d9 26bf 9a67 083e dd99 913d 60e9 0a3e
00000100: 0ebc 6cbe a54c b23e bb27 84bd b0a2 7fbe
00000110: 81a8 0f40 13b9 2a40 4773 b6bf 9f5e 363f
00000120: c491 0fc0 ad34 c9be 2270 c3be 0fee 3240
00000130: 0046 10bf d20b c13f 9c95 8dbe b5a8 59be
00000140: 0f44 5abe 7478 963d 2605 c5bc d483 34be
00000150: b993 613d 0153 e33f 473a 70be be23 03bf
00000160: c57b c5be f03c 5fbf f74c 1740 208a c43e
00000170: db40 cd3e 9cfd 62be 31b0 213f 8e95 3f3f
00000180: eb13 323d 1ab2 3e3e 17dd 943d 5b7f abbe
00000190: f00a bbbd b7e5 c03e 5820 2940 5ef9 a63d
000001a0: 96d4 7fbf db68 91bf d736 87bf 0968 f53f
000001b0: 1377 a0ba 71b0 ab3f 6c8d 5cbf 93ca d33e
000001c0: 2772 e43e 0987 143e 8b6d 5f3d 306a 52bd
000001d0: 66c8 bb3c 8b53 bbbd e8ad 5cbe 137e 2940
000001e0: 7cfd 59bf c7ad 1640 e7e5 18c0 3a44 a23f
000001f0: 21af 403f 9446 2bc0 2824 113f 07cd 4d3f
00000200: 0c6f 0d3e 0f56 24bf bb1a 92be cee6 1bbe
00000210: 6d58 05be 011d a03d 558a 22be c5fb 50bd
00000220: ccda 68bf 3d29 b43e e186 953e ea18 0440
00000230: 8643 b93f 6c2f e2be 1f7d 95bf 36d3 7fbe
00000240: 201f abbf 70e2 5dbf 4f80 b73e 734c 9c3e
00000250: 0add 1d3e 1299 7fbc c156 ed3d 7250 e5bd
00000260: e953 c83d 1245 9e40 6f87 1cc0 1497 b73f
00000270: 94ac 1cbf c0fa 85be ce1f eabe 95c0 e1bf
00000280: 8ec1 cb3f 8184 2d3f 5d35 b53f 57a7 f6be
00000290: 3377 aebe 623b dbbd ee10 e3bd 53f1 abbe
000002a0: 7dc6 3bbe 75f4 69bd 6b83 773f 2097 3f3e
000002b0: 9514 c4bf 883b b5bd 84d6 93bf cbbe a640
000002c0: 277f ecbe 6734 9cbf fba7 15bf f3ad 803e
000002d0: 2f71 05bf 5c96 60bd c17f a5be 74d6 7abd
000002e0: ed59 973e b69b dd3d fdf6 f9be 6446 0d40
000002f0: 6283 b23e 7bbd 883f 368f 94bf 3435 cabf
00000300: f3b0 1c40 3d59 1040 b164 463e c954 e4bf
00000310: 3042 3c3f ca76 a23d 43fa 39be 24c1 46bd
00000320: a89a cd3d 8bfd 8f3e 0115 33be 962c fa3a
00000330: b115 3ebf 4c1f 233f 620a 27bf 1ae7 a63e
00000340: 81a1 8f3f 90d9 943f 09be b7be 9f83 a23e
00000350: 20dc 983e 2a26 a1be 6850 58bf f741 21be
00000360: c0f7 02be f090 72bd 2d7b edbd 99f6 4cbe
00000370: a16e 703d 7ff8 7641 b67e b9c0 5547 973d
00000380: 2698 2f3f c5d8 ffbe cf76 853f 647b 0340
00000390: 9a6f 833f 7eb8 4a3e d75d 57be 97b2 8c3d
000003a0: 2751 82bc 64d4 70bc d96b d5bc 855f 1cbd
000003b0: 1b84 7a3d fdae ea3b ef79 0bbf 205e d9be
000003c0: dca0 b33f e557 ad3f 43e9 c03d 3821 8f3e
000003d0: 244d 283f 4717 9abf 4e6c aebf 68b9 61bf
000003e0: 781f 283f c7d2 8dbd 78f3 0dbe bd00 a7bd
000003f0: ee34 513d 3946 b93d 7ea3 1abd 6225 d2bf
2.2847705 -0.73215896 -0.5940472 -1.0013833 0.35144076 2.8695157 1.7480158 0.58879524
0.23575366 -0.27157846 -0.57642347 -0.29797915 -0.20189494 0.03705439 -0.103557035 -0.061531126
0.023189351 0.829808 -3.2751586 1.4434005 -0.27024773 0.8451832 -1.3368056 -0.05879439
-0.7223153 -1.9134955 0.8391688 -0.34730506 -0.0070908805 -0.2026603 -0.0393487 0.37294003
-0.05908497 -0.16594176 -0.1580222 -2.5434911 1.0844034 0.1479007 -0.59047234 3.654386
-2.6378276 1.4719096 -0.28099382 0.39957598 0.34480602 -0.10540599 -0.0047128783 -0.193933
-0.034220982 0.07721556 -0.09233501 -0.84964037 1.3249481 1.4338397 -0.16038336 0.22849262
2.281871 0.056262456 1.4395204 -1.4001828 -0.65175277 0.13320771 0.07109425 0.13565588
-0.23118612 0.348241 -0.064528905 -0.24964404 2.2446597 2.667546 -1.425393 0.7123813
-2.2432718 -0.39298 -0.38171488 2.79578 -0.5635681 1.5081732 -0.27653205 -0.21255763
-0.21315025 0.07347193 -0.024050307 -0.17628413 0.05507252 1.7759706 -0.23459731 -0.51226413
-0.3857099 -0.8720236 2.3640726 0.3838663 0.40088543 -0.22167057 0.6315947 0.7483758
0.043476027 0.18622628 0.07268732 -0.33495602 -0.091329455 0.3767526 2.642599 0.08153032
-0.99933755 -1.1360124 -1.0563611 1.9172374 -0.0012242518 1.3413221 -0.8615329 0.4136549
0.4461834 0.14504637 0.054547828 -0.0513708 0.022922706 -0.09146794 -0.21550715 2.64832
-0.8515241 2.3543565 -2.3890321 1.2677071 0.75267226 -2.6761827 0.56695795 0.8039097
0.13811892 -0.64193815 -0.2853602 -0.15224764 -0.13022013 0.07818032 -0.15873082 -0.051021356
-0.9095886 0.35187712 0.29204467 2.0640206 1.4473732 -0.44176805 -1.1678809 -0.24982914
-1.3368874 -0.8667364 0.3584008 0.30527076 0.15416351 -0.01560046 0.115888126 -0.11196984
0.097816296 4.9459314 -2.4457662 1.434298 -0.61200833 -0.2616787 -0.4572739 -1.7636896
1.5918443 0.6778031 1.415691 -0.48174545 -0.34075317 -0.10704686 -0.110872135 -0.33582553
-0.18337436 -0.057117898 0.966849 0.18709993 -1.5318781 -0.08849245 -1.154984 5.21079
-0.4619076 -1.2203492 -0.5845944 0.25132713 -0.5212583 -0.054830894 -0.3232403 -0.061239675
0.29560795 0.10820715 -0.4882125 2.2074213 0.34865862 1.0682825 -1.1606205 -1.5797486
2.4483001 2.2554467 0.19374348 -1.7838374 0.73538494 0.079328135 -0.18161874 -0.048524037
0.10039264 0.28123125 -0.17488481 0.0019086774 -0.7425185 0.6371963 -0.6525022 0.32598191
1.1221162 1.1628895 -0.35887173 0.31741044 0.29855442 -0.3147443 -0.8449769 -0.1574782
-0.12789822 -0.059220254 -0.115957595 -0.20015945 0.058699254 15.435668 -5.7967176 0.073866524
0.68591535 -0.4997007 1.0426883 2.0544062 1.0268433 0.1979694 -0.21031891 0.06870001
-0.015907837 -0.014699075 -0.026052402 -0.038177032 0.06116114 0.0071619735 -0.5448293 -0.42454624
1.4033465 1.3542448 0.09419491 0.2795503 0.6574271 -1.2038354 -1.3626802 -0.8817353
0.6567302 -0.06924968 -0.13862407 -0.08154438 0.05107587 0.09046597 -0.037753575 -1.6417658

layer_1.bias f4 [400]
00000000: 7c75 e8bf 4c9a 92bf c0e5 c9bf 1d23 70be
00000010: fb86 90bf 7311 07c0 f8bc 10c0 9056 e1bf
00000020: 0ae8 cabe 57e8 e4bf 6681 6cbf e68d a8bf
00000030: 9994 1bbf ce25 86bc 5269 f4bd da4d ec3f
00000040: 0146 b6bf adbb 213f c2d5 e2bf eb8e e4bf
00000050: d5ed 81be 16c2 12bc d4d6 51bf 43bc f3be
00000060: 9a6b 09c0 2428 babd 1027 6c3f fb7c dcbf
00000070: 1653 1f3f 3e60 8fbf 8dfd 9ebf edf3 dcbf
00000080: 94c7 0cc0 ab71 91bf c1eb 2ebf a5e0 d0bf
00000090: 2519 9cbf 6049 c2bf 816a 5b3c dc40 c13e
000000a0: 959c 183f 2a89 1bc0 0e94 9dbf 0db6 2fc0
000000b0: c0e8 46bf ca40 f1bf e6bf 16c0 0943 8ebf
000000c0: 4ea7 aebf 9ebd 82bf a321 bdbf bcfd 86bf
000000d0: 9e59 47bf 75f4 dcbf 42a2 15c0 83e6 dabf
000000e0: 4e04 c6bf 7832 0e3d ea05 debf dfc8 7ebf
000000f0: 59d8 f03e c6bf fdbf 2994 4bbf e54b fbbe
00000100: c5c8 85bf 445f d4bf d0e7 cf3f 6feb f1bc
00000110: d5b4 3ac0 f481 3c3f 1450 2cc0 d43a 0240
00000120: 15e9 f5bf 290c 01c0 6289 cfbf 8fb9 eebf
00000130: c928 52bf 07a4 403f 9dfc 00c0 b40b f5bf
00000140: 4307 6dbf 1377 e3bf 2051 d3bf 5752 3abf
00000150: 9d0a 843f d2de 85bf 1fd5 e7be 0a2e 89bf
00000160: e74c 993f c2b6 f3bf 0648 01c0 f573 39bf
00000170: 647a 1a40 abac 18be 10f2 95be 8ae4 f7bd
00000180: 9fd7 f2bf 00f1 71bf c734 2dc0 6cbd 1ebf
00000190: 27fa 19c0 cf3e 90bf abf7 42bf 30e6 12c0
000001a0: e3bb d5bf 3616 5bbf 0dcb 27bf a3f1 17c0
000001b0: 51d6 d2bf 2ad3 35c0 8b1e 09c0 945b 3ebf
000001c0: 033b 16c0 c5a1 80bf 0621 e4bf be6f 0dc0
000001d0: c78e b93e d94e 1ec0 82af dfbf 8563 8dbe
000001e0: 32c9 2fbf f23a d9bf 4495 b3bf 4bfa da3f
000001f0: 71c2 01c0 0cd0 e2bf f614 e7bf 9023 0fc0
00000200: 6d82 6a3f 508b eebf 14e3 65bf 1597 1ec0
00000210: 0091 a2bf 3c02 bdbf 6be4 debf f19a ddbf
00000220: ae35 11c0 05af cfbf b5ff 07c0 b4b9 0dc0
00000230: e9d2 16c0 c641 18c0 890b 45bf 0aeb 38bf
00000240: caad a8bf 5786 96bf f07a f1bf eed2 aebf
00000250: 4a5d 24bf 7a6f d1bf dd75 1bc0 2f03 713d
00000260: e880 e4bf 68b7 ffbf a4be 9dbd eeb7 8fbf
00000270: 9348 6abf 948c 9fbf 48f3 52bf 25a8 3ac0
00000280: d0c2 a5bf 55ab 363f efaf aabf 137e c7bf
00000290: 7de9 babf 4d5f e8bf e7a0 d6bf 0cbf cebc
000002a0: a21c 2dc0 98d6 b9bf a81b f9bf 4e80 e0bf
000002b0: e243 af3f e4f8 78bf 3de5 1bbf d4ad fcbe
000002c0: 2a42 e1bf 3011 03c0 cfda 3d3d 99d1 71bf
000002d0: 8b9d d7bf 17a4 95bf 21d7 843f 3a61 bdbf
000002e0: 6576 01c0 7796 a6bf 6717 a2bf 42e9 643e
000002f0: 7ed1 7cbf 49b7 25be 6888 00c0 d0c8 84bf
00000300: 709e a3bf 38cc f9bf fde0 29c0 13b9 06c0
00000310: 3b58 a6bf c644 fdbf d7c2 09c0 63f9 17bf
00000320: 6b26 bebf 480d 03c0 299d 16c0 f871 e8bf
00000330: 9336 4abe 625b d4bf 3986 9abf 8aab 1f3f
00000340: 787d 92bf 5c75 abbf 9e82 393f 3ab0 adbf
00000350: b5d3 49bf bc2b 0bc0 84e7 103f 3880 10c0
00000360: 2433 92bf 822e e8bf de4c 91bf 3e3f 88bf
00000370: d108 4c3d a05f 9b3f f109 a7bf 8124 e2bf
00000380: a79b 7bbf 2aa7 5dbf fe30 9fbf 01f6 003f
00000390: 53cf f33e a4f5 39bf 64c8 06be 7d47 17c0
000003a0: 37e4 d9bf a64e 1abf 3784 b6bf 7be0 77bf
000003b0: 187a 90bf efdd 00c0 79c1 08c0 b7b7 03c0
000003c0: e7d7 b8bf 39fc ccbf 6aed 473e 7b1f 85bf
000003d0: b750 963d c703 a6bf e711 e1bf 4802 e8be
000003e0: 54f3 b63f a0fb f2bf fa68 423f d70e e7bf
000003f0: 964b fe3f 7f3a a2bf 0af0 f1bf 260b 21bf
-1.8160853 -1.1453338 -1.5773239 -0.23450895 -1.1291193 -2.11044 -2.2615337 -1.7604542
-0.39630157 -1.7883404 -0.92384946 -1.3168304 -0.6077362 -0.016375449 -0.11934151 1.8461258
-1.4240113 0.63176996 -1.7721484 -1.7856115 -0.25376764 -0.0089574065 -0.81968427 -0.4760457
-2.1471925 -0.090896875 0.92247105 -1.7225641 0.62236154 -1.1201246 -1.2421128 -1.726194
-2.1996813 -1.1362814 -0.6832848 -1.6318556 -1.2195174 -1.5178642 0.013392092 0.37744796
0.59613925 -2.4302468 -1.2310808 -2.7454865 -0.776989 -1.8847897 -2.3554626 -1.1114208
-1.3644807 -1.0214117 -1.477589 -1.0546184 -0.7787112 -1.7262102 -2.3380284 -1.7101597
-1.5470064 0.0347161 -1.7345555 -0.99525255 0.4704006 -1.982415 -0.7952295 -0.4908134
-1.0451895 -1.6591573 1.6242619 -0.029531209 -2.917287 0.7363579 -2.6923876 2.0348406
-1.9211756 -2.0163672 -1.6213801 -1.8650378 -0.82093483 0.75250286 -2.0154183 -1.9144197
-0.92589206 -1.7770714 -1.6509132 -0.7278189 1.0315739 -1.0458624 -0.45279786 -1.0717175
1.1976594 -1.9040148 -2.020021 -0.7244256 2.4137201 -0.14909618 -0.29286242 -0.12104137
-1.8972052 -0.9450836 -2.7063463 -0.62007785 -2.405893 -1.1269168 -0.7615916 -2.2952995
-1.6697963 -0.85580766 -0.65544206 -2.3741233 -1.6471654 -2.8410134 -2.1424892 -0.7435849
-2.3473518 -1.0049368 -1.7822578 -2.2099452 0.36241743 -2.4735625 -1.7475436 -0.2761499
-0.68666375 -1.6971114 -1.4029927 1.7107633 -2.0274928 -1.7719741 -1.8053272 -2.2365456
0.91605264 -1.8636265 -0.8979962 -2.4779713 -1.27005 -1.4766307 -1.7413458 -1.7312909
-2.2689013 -1.6225287 -2.124982 -2.2144594 -2.356623 -2.3790145 -0.76970726 -0.7223364
-1.3178036 -1.1759747 -1.8865643 -1.3658121 -0.6420485 -1.6362145 -2.4290688 0.058840927
-1.7851839 -1.9977846 -0.077023774 -1.1228006 -0.9151699 -1.2464776 -0.8240247 -2.9165127
-1.2950077 0.7135518 -1.3334941 -1.558535 -1.4602505 -1.8154083 -1.6767853 -0.025237583
-2.7048726 -1.4518614 -1.9461565 -1.7539155 1.3692591 -0.97254777 -0.60896665 -0.4935137
-1.7598317 -2.047924 0.04635125 -0.94460446 -1.6844953 -1.1690701 1.0378152 -1.4795296
-2.0228512 -1.3014668 -1.2663392 0.22354606 -0.9875716 -0.16183199 -2.0083256 -1.0373783
-1.2782726 -1.9515448 -2.6543572 -2.105046 -1.2995676 -1.9786613 -2.152517 -0.5936491
-1.4855474 -2.0476856 -2.3533423 -1.815978 -0.19747381 -1.6590388 -1.2072212 0.6237112
-1.144454 -1.339519 0.7246493 -1.3569405 -0.78838664 -2.1745443 0.56603265 -2.2578259
-1.1421857 -1.8139193 -1.1351583 -1.06443 0.049813095 1.2138557 -1.3049909 -1.766739
-0.9828438 -0.865832 -1.2436826 0.5037537 0.47619113 -0.7264044 -0.1316238 -2.3637383
-1.7022771 -0.6027626 -1.4259099 -0.96826905 -1.128726 -2.0135458 -2.1368086 -2.058088
-1.4440888 -1.6014472 0.1952416 -1.0400232 0.07339614 -1.2969903 -1.7583588 -0.4531424
1.4293008 -1.898304 0.7594143 -1.8051404 1.9866817 -1.2674102 -1.8901379 -0.62907636

layer_2.weight f4 [300, 400]
00000000: ee0a 6ebc 0690 37be 7d8d e33c 1f44 a4bd
00000010: 3b96 b8bd 1c22 0dbd 93f3 44bd f426 36bd
00000020: d7e1 9abd 7dd1 12be 6f7c cbbd c3f2 a7bc
00000030: cd85 6cbd 5a1e a8bd 7d2a f3bd fdb1 e1bd
00000040: 2aaf 10bc e9c9 01be c7f9 afbd 3f2b 953c
00000050: ccb4 dbbd a0f8 18be 4c86 913c d50f 5b3c
00000060: 72b9 12bd ffc8 0cbe 5ff5 a8bd 4cd6 72bd
00000070: 7d0f 56bc 01df 593c 6e5b 2bbd 76b8 87bd
00000080: 4f18 efbc 57dc 8abd 467e 0a3c 9fc9 4cbe
00000090: 1101 86bd b4fa d1bb 7fa7 d33c 5290 8e3d
000000a0: 16d1 fbbd 07b0 5c3c 73c1 87bb 0403 36bc
000000b0: f1f1 ae3c 5476 a2bd 094d 3c3c 1790 6eba
000000c0: 7538 d7bd e458 fdbc d686 4abd 7b9f c0bd
000000d0: 7934 343d 698d 1cbd c662 913d 065f 19bd
000000e0: 2443 48bd 5c57 bdbd 45fa 00be 2266 f0bc
000000f0: d42b a2bd b9f6 44bd e301 7fbc a935 4a3c
00000100: 7cb2 e0bd a460 04be 011d edbc f8c5 01be
00000110: 5851 c5bd 125e 06be ae30 51bc 9a06 5dbe
00000120: 2be6 e5bd 9a39 4bbe 0de6 b4bd 6da0 8d3d
00000130: a2e6 b9bd 1eb3 c0bd bec5 b63c 572b a7bc
00000140: a2db 7cbc e186 f8bd 79b7 34bc 3046 613a
00000150: b163 12be 5abc f8bd 4feb debd 8470 0a3d
00000160: 3b2d 3cbe 9fa7 2bbe f066 bcbd d739 2fbd
00000170: c389 20be ad8f 04be 3fe8 5dbd c3a1 9cbd
00000180: c53f 8c3c f7d0 98bd 5a81 f4bc af76 e0bd
00000190: 8153 f23c a7bb b03d 58fd b4bd e64b 3a3c
000001a0: ef80 5ebb 2141 5ebd 702d b43d b557 713c
000001b0: 84bd 323b d293 36be 65f0 9dbc f97f e5bd
000001c0: bc24 ae3c e4b8 623d 0b03 28be 1f80 82bc
000001d0: a13a f9bd 2768 43be 8e5d 2cbe 6f6b a8bd
000001e0: 0332 5ebd fff6 3abe 0cdb 02be 6c28 42be
000001f0: 4fb3 67bd e5b8 f0bd 9e7c 56be ed89 aabd
00000200: e703 40bd b623 a93c 24e2 18be d29a c6bd
00000210: df08 bdbd 4381 c6bd 3dd8 97bc f551 7c3d
00000220: af4c f4bd 47b7 873d 1f16 d93b 774c 80b9
00000230: 9f48 e1bd 8c46 26bd 2776 933c 7e1b 30bd
00000240: 3d97 913d 34c6 c8bd 6020 07be 38a9 d1bd
00000250: db05 89bd 66d9 053e eaa8 dfbc da1a dcbd
00000260: 6f65 4f3d a5fe 42bb d1b5 8abd ff04 deba
00000270: c133 37bd 86b5 0cbe 3f5c 3bbd fd22 9abd
00000280: 389f c0bb 3d39 d3bd c387 8bbd 146f 063c
00000290: 659e abbd a378 19be a2d7 bf3d 2180 58bd
000002a0: b44b 5abd c15a eebd c46d 3dbc 0b0a e0bd
000002b0: 4064 0bbe 725a 74bd 5fbf ccbd fac2 0ebe
000002c0: 3820 2f3d fc41 a5bd 6a58 0ebd 9343 04be
000002d0: bcaf d1ba db04 11be 7cca 9bbd 4746 c2bd
000002e0: d5a7 02be 8e91 d9bd 1ccc 13b9 b873 05be
000002f0: 2007 4dbd 1463 acbd 6ed9 02bd 76eb fcbd
00000300: 6c5a 95bd 5e12 b6bd f0cf c0bd 90fb 1cbd
00000310: 88b3 88bd 6b7c e8bd 7461 93bc d4ed ae3d
00000320: 98fb c33c 0aa0 f4bd fbc9 63bc f9f2 99bd
00000330: 5c19 12bd 6296 5c3d 5e9e e1bd 692d d2bd
00000340: a729 1dbe ba6c aabc 526e a0bd fb3c 9ebd
00000350: 1efa 34be 3a20 44be 18cc b8bd 0912 86bd
00000360: 5deb ecbc 85b2 a53c 6184 2e3d 9f2e 07be
00000370: 1065 25bd 27b1 d9bd 7661 e03c 3ab8 a73c
00000380: 53e2 dfbc 0578 15be 8fcb 963d e28c 14be
00000390: 7e3e 063d 5583 f13c 39af 883b a0f8 45bc
000003a0: e9cd 63bd f62f 27be d8b2 71bc e39d 5abd
000003b0: 8699 e2ba dde0 90bd d806 c33d 7038 303c
000003c0: 4a5b 653d 8a16 0fbd 6ed7 58bd 34f2 45bb
000003d0: c373 c9bd 30ea b6bd b98a ddbd 4b36 023d
000003e0: 6d51 6cbd 48c9 56be ecb9 28be 9a99 d9bd
000003f0: 1582 3abe c201 21be 7636 753c 343d c6bc
-0.014528973 -0.17926034 0.027777428 -0.080208056 -0.09013029 -0.034456357 -0.048083853 -0.044470742
-0.07562607 -0.14337726 -0.09935843 -0.0205015 -0.05774479 -0.08208914 -0.11873338 -0.11020277
-0.008830825 -0.12674679 -0.08592563 0.018209098 -0.10727844 -0.14938593 0.017764233 0.013370474
-0.035821386 -0.13748549 -0.08249926 -0.0592864 -0.013065216 0.013297797 -0.04183524 -0.0662698
-0.029186396 -0.06780308 0.0084529575 -0.19998787 -0.06543172 -0.00640806 0.025836704 0.06961121
-0.12295739 0.013469703 -0.004142934 -0.011109117 0.021355601 -0.079327255 0.011492976 -0.00091004506
-0.10508815 -0.030926175 -0.049444996 -0.094054185 0.043995354 -0.038220797 0.07098918 -0.037444137
-0.048892155 -0.09245178 -0.1259547 -0.029345576 -0.07918516 -0.048086856 -0.015564415 0.012341895
-0.10971543 -0.1292749 -0.028944494 -0.12673175 -0.09634656 -0.13121822 -0.012767954 -0.2158455
-0.11225542 -0.19846192 -0.08832941 0.069153644 -0.09077193 -0.09409164 0.022311088 -0.020406408
-0.015433224 -0.12135101 -0.011030071 0.00085935276 -0.14295842 -0.121453 -0.10884725 0.03379871
-0.18376629 -0.16763161 -0.09199321 -0.04277977 -0.15677552 -0.12945433 -0.054176565 -0.07648041
0.017120251 -0.07461732 -0.029846836 -0.10960137 0.029580833 0.08629542 -0.08837384 0.011370635
-0.0033951362 -0.05426133 0.08797729 0.014730384 0.0027273605 -0.17829826 -0.019279668 -0.112060495
0.02125775 0.055352107 -0.16407411 -0.015930234 -0.12169386 -0.190827 -0.16832563 -0.08223616
-0.054246914 -0.18258284 -0.12778872 -0.18960732 -0.056567486 -0.11754016 -0.20945975 -0.083270885
-0.04687872 0.020646911 -0.14930016 -0.096974984 -0.09230208 -0.096926235 -0.018535728 0.061601598
-0.11928689 0.06626754 0.0066249515 -0.00024471033 -0.110001795 -0.040594622 0.018000675 -0.04299497
0.071089245 -0.09803429 -0.13195944 -0.10237354 -0.0669057 0.13071212 -0.027302224 -0.10747309
0.050633844 -0.002975383 -0.0677296 -0.0016938745 -0.04472709 -0.1374112 -0.04574227 -0.07526205
-0.0058783554 -0.10313652 -0.06813004 0.008205194 -0.08379821 -0.14987426 0.093673006 -0.05285657
-0.053294852 -0.11638404 -0.011561815 -0.109394155 -0.13612461 -0.059656568 -0.09997439 -0.13941565
0.042755336 -0.08069226 -0.034752287 -0.12916403 -0.0015997807 -0.14162008 -0.0760698 -0.094860606
-0.12759335 -0.106234655 -0.00014095049 -0.13032424 -0.050055623 -0.08417335 -0.03194564 -0.12349598
-0.07292637 -0.08890222 -0.09414661 -0.038325846 -0.06674868 -0.11351856 -0.017990805 0.08541456
0.02392368 -0.119445875 -0.013903136 -0.075170465 -0.035668716 0.053854354 -0.11016534 -0.102625675
-0.1534792 -0.020803798 -0.07833542 -0.07726475 -0.17673537 -0.19152918 -0.09023303 -0.06546409
-0.028920824 0.020226726 0.042606715 -0.13201378 -0.040379584 -0.10629492 0.027390223 0.020473588
-0.0273296 -0.14596565 0.073630445 -0.14506868 0.03277444 0.02948157 0.004171279 -0.012083203
-0.055616293 -0.1632689 -0.014752112 -0.05337323 -0.0017288185 -0.07074139 0.0952279 0.010755643
0.055995263 -0.034933604 -0.052939825 -0.0030204179 -0.09836533 -0.089313865 -0.10817475 0.03179006
-0.05769484 -0.2097522 -0.16477174 -0.10625 -0.18213685 -0.15723327 0.014966598 -0.024199106

layer_2.bias f4 [300]
00000000: 36c9 1abe b266 503d 2d3f 3dbf 8fd9 03bf
00000010: 42d4 31bf 3f93 28be 5c6f 87bc 0d02 89bd
00000020: 4834 00bf 2222 94bd 6179 68be d127 98bc
00000030: 1108 05bf a8c2 81bd 10c3 6dbf fb28 45be
00000040: ef9f 5fbc b596 1ebf 0505 78bc cf4e 6cbd
00000050: c312 68be 7fd4 9cbd 1ab0 59bf 20cd 28bf
00000060: 10ed abbd 84fd a4bd 974a a4bc 9f9f 9bbe
00000070: 2c89 afbd 0b19 98bd 828c 8abe 9b29 f5bd
00000080: a6b6 00bf c0ee d6be d757 18be b262 05bf
00000090: 6972 8b3e c5bd 97bc daf9 2ebf 5f2f 4abe
000000a0: fe30 96bf c06e a7bd 1342 13be 51ea 09be
000000b0: e44f 88bd cb6a c5be 3188 1fbe 5af2 66bd
000000c0: 0917 08bf b430 b0bf e266 06be fcb5 34be
000000d0: 0280 34bd 0a82 95be 5682 40bf bea8 75bd
000000e0: f8ef 76be 1ebe 4cbe 777f 243d 8edf 8b3e
000000f0: a473 f9bc f19c cc3c 90a4 d93e b36d 58bf
00000100: 6c8e 713d ea53 07be b467 7bbd 31cf f0be
00000110: bd9c 88bc f5c7 04be 7961 6ebe 773c 22bd
00000120: bd41 7abc 86e1 0bbf 8280 a0bd c7fb e03d
00000130: 9151 f0bc 67bb d8bc 834f 7cbf d7a1 babc
00000140: 3269 28bf 935f 34bd b487 7abe d56c b7bc
00000150: 5d4c a9bb 1285 b7bc a6b4 36bf ec54 2bbc
00000160: d713 903d 7d12 5dbf c436 a2bb c592 6cbd
00000170: 7e56 51be d57b 28bd c3c4 e3bb 12ab 52be
00000180: 663c 8abd 4172 093e 5eaa 01bb 6e96 cfbb
00000190: 566e 92be 34e5 eebc fa9f b3bd 482c a3bd
000001a0: 2b1a 8a3e 1cea 88bd 3a36 d9bc f13a 91be
000001b0: 73d8 98bf 3575 493c 2c84 1d3c 8037 1abe
000001c0: 2490 573b b76d a2be fe9a d4be 4ad5 073f
000001d0: 548f c8bc 003d dc3e 3639 08be d056 91bd
000001e0: f37c 36bd a4f2 7bbc 5ae5 c9be 7e74 a5be
000001f0: 7e00 9c3c ad8f f6bd 4af9 42bf 4f4b 4ebe
00000200: b19e 39bf 4ea5 5bbf 9c49 87bd 80a6 e4be
00000210: 3538 503e efd6 c9bd a685 a4bd 6613 6ebf
00000220: 98a1 69bf 215a afbc 9366 9bbe d874 4bbd
00000230: 7efb 64bf 1486 2fbe 0b99 03bf 3c9b 36be
00000240: db77 c13e 4e78 60bc 8b81 d0bd fdd9 1dbe
00000250: 885e b7bd d636 03bd f905 0ebc 8d02 adbd
00000260: 51f7 c0be 17c3 06be 6dba 7abd 9237 29be
00000270: 0c0e a53b 641d f3bc 9192 02bf 45ac d8bd
00000280: a80b 3abf b802 3fbd 11bc ddbe 656f 95be
00000290: 6e10 d6bc 58f1 12bf 1c36 ac3b d31b 30be
000002a0: 827b ebbc ab76 7bbd 3978 74bf 6dab f8bc
000002b0: effd 89be 0165 c9be f40a b7bd d07b 073a
000002c0: bcba 91bf 01d5 39bf 37ca a6bd 17a6 09bd
000002d0: 3b0e 80bf a442 0cbe d4a8 083f b07b 56bf
000002e0: 45a3 b1bc 6700 73bd 59e6 87bd 4c46 bebb
000002f0: deea 5dbf 9288 b1be 5273 a5be f61a 2cbc
00000300: 9714 7cbd 4f90 72bd 08b9 eebc cc04 0dbe
00000310: c3ad 43bf 3d65 cebd 8508 35be 4aec 903e
00000320: 3d6e 1cbc b6d5 b6bc 93f2 c4bf fdc8 9fbd
00000330: 5f47 a6bf 66d7 e8bd b6fd 62bf c92d 9e3c
00000340: 48e6 0a3e a8f6 8cbf 345a 08bf 2f78 08bf
00000350: 0506 013e c30d bfbe 5ba0 f43d 71ac 15bf
00000360: 05e8 13bf 4a67 f2bc 515e dbbc 6b1c e7be
00000370: 3695 afbf 22c8 3cbe 1e52 22be 8713 b6bd
00000380: a55a 1dbf ce78 3dbf 4297 41bf afd3 51be
00000390: b2d2 51be 8763 263d 1e51 c6be e595 c7be
000003a0: 4453 c2be e099 41be 6aff 2dbd 64da 44bf
000003b0: 7658 b8be bd88 5abf 5303 1dbe bc1c 8e3c
000003c0: 8b92 6f3e ae1b c0bd cc3c 7abd f8ad 70bd
000003d0: 646f a9bd 4b12 91bf 0ef1 6dbf 0322 b4bc
000003e0: 3ea5 82bf 36ed 4dbd 9ebb b1bd 5c19 df3e
000003f0: 6177 0abf 6a53 8cbd e3d0 45bc 2b8b ab3e
-0.15115818 0.050879188 -0.73924524 -0.51503843 -0.69464505 -0.1646242 -0.016532592 -0.06689844
-0.50079775 -0.07233073 -0.22702552 -0.018573673 -0.51965433 -0.06335956 -0.92875767 -0.19253914
-0.013648971 -0.6194871 -0.0151379155 -0.057692345 -0.22663407 -0.07657718 -0.85034335 -0.65937996
-0.083948255 -0.08056167 -0.020055098 -0.3039522 -0.08571085 -0.074266516 -0.27060324 -0.11970826
-0.502787 -0.41979027 -0.14877258 -0.5210372 0.27235726 -0.018523106 -0.68349993 -0.19744633
-1.1733701 -0.08175421 -0.14380674 -0.13468291 -0.06655863 -0.3855804 -0.15579297 -0.05638347
-0.5316015 -1.3764863 -0.13125184 -0.17647547 -0.04406739 -0.29200774 -0.75198877 -0.05997538
-0.24114978 -0.19994399 0.040160622 0.27318996 -0.03045065 0.02497718 0.42508364 -0.8454239
0.058973715 -0.13215604 -0.061378196 -0.47033074 -0.016676301 -0.12966903 -0.2327937 -0.039608445
-0.015274462 -0.54640996 -0.07837011 0.10985523 -0.029335769 -0.026456548 -0.98558825 -0.02278225
-0.65785515 -0.04403646 -0.24465829 -0.022390762 -0.005166574 -0.02240232 -0.713694 -0.010457259
0.07035034 -0.86356336 -0.004950376 -0.057757158 -0.2044315 -0.04113372 -0.006950946 -0.2057307
-0.06749801 0.1342249 -0.0019785385 -0.0063350713 -0.28599805 -0.029162027 -0.087707475 -0.0796743
0.2697309 -0.06685278 -0.026515115 -0.2836528 -1.1941055 0.012296011 0.009614032 -0.15060234
0.003289231 -0.3172433 -0.415245 0.5305983 -0.024482407 0.4301529 -0.13303074 -0.07096636
-0.044552755 -0.015377674 -0.39432794 -0.3231544 0.019043203 -0.12039123 -0.76161635 -0.20145915
-0.7250777 -0.8579911 -0.06605837 -0.4465828 0.20333941 -0.098554485 -0.08033304 -0.9299835
-0.912622 -0.021405281 -0.30351695 -0.049671978 -0.89446247 -0.1714099 -0.514054 -0.17832655
0.37786755 -0.013700558 -0.10180958 -0.15415187 -0.08953577 -0.032034718 -0.008668416 -0.08447752
-0.37688687 -0.13160358 -0.061212946 -0.16525105 0.005037075 -0.0296771 -0.5100489 -0.10579733
-0.72674036 -0.046633452 -0.43307546 -0.2918655 -0.026130881 -0.5739951 0.005255474 -0.17198114
-0.028745417 -0.061392467 -0.95495945 -0.03035518 -0.26951548 -0.39334872 -0.08937636 0.0005168291
-1.1385112 -0.72590643 -0.08144038 -0.03360566 -1.0004343 -0.13697296 0.5338261 -0.8378248
-0.021684298 -0.059326556 -0.06635732 -0.00580672 -0.86686504 -0.34674507 -0.32314545 -0.010504475
-0.061543074 -0.059219655 -0.029140964 -0.13771361 -0.76437014 -0.100779034 -0.17679031 0.28305274
-0.009547767 -0.022318702 -1.5386528 -0.07802007 -1.2990531 -0.11369209 -0.8866838 0.019308941
0.13564408 -1.1012774 -0.5326264 -0.53308386 0.12599953 -0.37315187 0.11944648 -0.5846625
-0.5777591 -0.029590268 -0.026778372 -0.4513887 -1.371741 -0.1843572 -0.15851638 -0.08890443
-0.6146644 -0.7401246 -0.75621426 -0.20490907 -0.2049053 0.04062226 -0.38733763 -0.38981548
-0.37954152 -0.18906355 -0.04247991 -0.7689574 -0.3600499 -0.85364896 -0.153333 0.017347686
0.23395745 -0.093802795 -0.061093137 -0.05875966 -0.08273199 -1.1333708 -0.92945945 -0.021988874
-1.0206678 -0.05027505 -0.08678363 0.43574035 -0.5408841 -0.068518475 -0.012073728 0.33504614

layer_3.weight f4 [6, 300]
00000000: f546 94bc 78f2 25be 20c8 b23e 6654 d83e
00000010: 9ad0 87bf 33a7 d43c 888c 62bb f86b 74bc
00000020: 9737 4d3e e404 303d 2147 38bf 8101 2ebc
00000030: a48a 1e3f fd20 44bd cac6 b23e 2338 83bc
00000040: 81c5 1f3c c08e 5dbe 1d0b c8bc 96f6 48bb
00000050: 2710 013f 1b18 45be 7bb3 2b3f 956a 9dbf
00000060: 4436 9e3d da75 99bc fc92 053c ad93 a1be
00000070: c9e3 06bd 264a 183e 45e7 0c3e 27bc 9d3c
00000080: 8af4 8cbd 0ba5 f73e 700b 42bf 0665 e5be
00000090: 9f3d bfbd 4303 7b3c e001 ca3c 5c9d 813d
000000a0: 1bd2 203f 280d a43d 61f5 f7bb 6fb9 55bd
000000b0: a5c5 123d f2a6 c03e fd0c 2abd 683e 023d
000000c0: 5916 8abf e607 17bd 1595 b53f 806e f83e
000000d0: 5952 81ba f71a e1be cd01 2abe fd53 07bc
000000e0: a707 f33e 64c3 ae3c 09d0 9e3e dc25 96be
000000f0: 3bb5 8f3b 17ed 1abd e591 46bf 6619 063f
00000100: fbef 31be cc77 7abd 1e47 193b 7b4e 343e
00000110: 2181 2abd 7c7b 863d 9aee b63c f730 c1bd
00000120: d9ef c33c e886 95be 3519 073d e7a2 c43e
00000130: 0313 083d 8b03 17bd 436c 8f3b 7368 cf3c
00000140: 7395 153f 1e52 ffbc bfe4 433e fc58 443c
00000150: 28f7 7a3c 4286 1abd 0e13 c2be f434 61bc
00000160: 2faa afbd bb57 f9bd da11 8ebd 97e9 c73c
00000170: 3af6 c03d 6c85 90bb 9ee7 a23c 9ae8 b73e
00000180: 538d 21bd 1d60 ae3d dedb 6c3d a625 a1bb
00000190: 99e2 20be fd7c 383c 2100 a83c f80e 15bc
000001a0: 0673 5f3e 5c92 b73c a5fa c8bc ed5b 4bbd
000001b0: 1fb4 b2be 6104 7dbc fffd 29bd d674 9dbd
000001c0: 7afd 623c 762c c2be 13c8 5a3e fb09 89bc
000001d0: 0959 ef3d cee8 28be b22c 4d3b 3fbe abba
000001e0: 9129 8a3d 3da4 ffbb e418 d03b e6a0 e7bb
000001f0: 13ac ab3d c3cf 30bd fc92 0cbe a771 683d
00000200: 1d20 dfbe d890 fd3e 80d8 e9bc 3ce5 51bf
00000210: 04c8 9abe 9c22 7a3e 77bc bfbb 0a7e 843e
00000220: 1295 f6be ab67 40bb 86cd 253e 3ffd 553c
00000230: 7fd3 0d3f efba 273d 69f4 f7bd 8594 efbe
00000240: 0007 bfbe f14f 6d3c 7e09 90bd d130 3d3c
00000250: 5f9c 7fbc 5131 4c3b 9877 81bb 6e4b 90bd
00000260: c3c9 bd3c 49ae 1dbd 05a4 14bc 29a5 f53d
00000270: 05d7 b83c e20e 92bc ea4c 12be 4dc8 a9be
00000280: 0fd0 83bf 1e5e 2f3c bf82 bb3e 7901 d1bb
00000290: 942f 133d ef8d 8abe bda7 323c 42b8 1ebe
000002a0: cc87 9b3a e788 2ebd 5439 6abe eb59 1cbd
000002b0: 6651 a23e 9340 e23e 3e8a 073d 2fb0 18ba
000002c0: b001 56be d6c6 f53e d35d f3bc c9b9 4ebc
000002d0: 8dbc 30be 7581 6d3d f043 123d 3968 973f
000002e0: 6f92 53bc 1bae b33c d7a8 92bd 5aff 0d3d
000002f0: e448 cfbd 86c2 4dbf 44e6 743e 25b6 23bd
00000300: 00f3 a2bc c4d1 18bb b662 c73c a767 993d
00000310: d4fb 263d 3b67 513c a249 c2be aaee 003e
00000320: 9819 4b3c 7ac1 533c 28bc 903e aacf 3dbd
00000330: 8d0c 743f 7988 c6bc 1dcd 87be 46fc 6e3c
00000340: 79a5 1b3f 8f4a 5cbd 0c41 d7be 199b 933d
00000350: 1b3b b13f e887 81bd 2df4 1c3e dbc0 8a3e
00000360: 7c38 193f 681d 83bd 8e84 fe3e 14a3 08bf
00000370: 01b9 8f3f ffb0 c43e 486c 243c 3ccc 863c
00000380: f833 f6be 4f58 0bbf 8db8 0e3e ab07 c1bc
00000390: a1ae 6b3e 3a32 0c3d 3480 133e 686c d8be
000003a0: 3615 cd3e 098e dfbb 3e52 2ebb 3583 183f
000003b0: b1ee e8be 2736 26bf 8bcc 3a3e a265 9bbc
000003c0: 58a7 babe a150 2e3d 3167 9d3c 345e ed3c
000003d0: 4aa3 b93b 4f9d 8dbe ca7f 113f 6cce 5cbc
000003e0: b512 ecbe e0b2 84bd 8964 1b3b 1715 dabe
000003f0: df63 a93e 2213 ce3c 61e8 8ebd 777d ab3e
-0.018100241 -0.16205776 0.34918308 0.4225189 -1.0610535 0.025958633 -0.0034568626 -0.01491832
0.20040737 0.042973414 -0.71983534 -0.010620476 0.619303 -0.047883023 0.3491729 -0.016017979
0.009751678 -0.21636486 -0.024419362 -0.0030664555 0.5041527 -0.19247477 0.6707074 -1.2298151
0.07725194 -0.018732954 0.00815272 -0.3155798 -0.032932077 0.14872035 0.13760097 0.019254757
-0.068825796 0.48368105 -0.757987 -0.44803637 -0.09337925 0.015320602 0.024659097 0.06328842
0.62820596 0.08010322 -0.0075670932 -0.052178796 0.03583302 0.3762737 -0.041516293 0.031797796
-1.078807 -0.036872767 1.4186121 0.48521805 -0.000986646 -0.43965885 -0.1660225 -0.00825977
0.47466776 0.021333404 0.31018093 -0.2932576 0.004385618 -0.037823763 -0.7756637 0.52382505
-0.17376702 -0.061149403 0.0023388336 0.17608063 -0.041627053 0.065665215 0.022330571 -0.094331674
0.02391808 -0.29204488 0.032983024 0.38405535 0.033221256 -0.036868613 0.0043769195 0.02531836
0.58431166 -0.031167086 0.19130228 0.011984106 0.015317716 -0.037725694 -0.37905163 -0.013745535
-0.08577382 -0.121749364 -0.06936999 0.024403377 0.09421964 -0.0044104364 0.019885834 0.35919648
-0.039441418 0.08514426 0.05782687 -0.004917818 -0.1571144 0.011260268 0.020507874 -0.009097807
0.21821222 0.022408657 -0.02453358 -0.049648214 -0.34903046 -0.015442939 -0.041501995 -0.076883
0.013854379 -0.37924546 0.21365385 -0.016728392 0.11686904 -0.16495058 0.0031307158 -0.0013102962
0.067462094 -0.007801561 0.0063506234 -0.007068741 0.0838243 -0.043166887 -0.13727945 0.056749012
-0.43579188 0.4952457 -0.028545618 -0.8199041 -0.30230725 0.24427265 -0.005851324 0.2587741
-0.48160607 -0.0029358666 0.16191682 0.013060867 0.5540084 0.04094976 -0.121071644 -0.46793
-0.37310028 0.014484392 -0.070330605 0.011547283 -0.015601247 0.0031157325 -0.0039510243 -0.07045637
0.023167497 -0.03849629 -0.009072308 0.119943924 0.022563467 -0.017829362 -0.14287153 -0.3316063
-1.029787 0.010703592 0.3662319 -0.0063783494 0.035934046 -0.27061412 0.01090425 -0.15499976
0.0011866032 -0.04261103 -0.22873431 -0.03817169 0.31702727 0.4418989 0.033090822 -0.0005824593
-0.20899081 0.48003262 -0.029707825 -0.012617537 -0.17259426 0.057984788 0.03570932 1.1828681
-0.01291333 0.021933606 -0.0716111 0.03466735 -0.10121325 -0.80374944 0.23915964 -0.03996863
-0.019891262 -0.002331839 0.024339061 0.07490473 0.040767506 0.01278096 -0.37946802 0.12591043
0.012396239 0.012924546 0.28268552 -0.046340622 0.9533165 -0.024234997 -0.26523677 0.014586514
0.60799366 -0.053782042 -0.42041814 0.07207317 1.3846163 -0.0632475 0.1532752 0.27100262
0.59851813 -0.06402093 0.49710506 -0.5337384 1.1228334 0.38416287 0.010035582 0.016454808
-0.48086524 -0.54431623 0.13937588 -0.023563227 0.23015834 0.034227587 0.14404374 -0.42270207
0.40055245 -0.006822352 -0.0026599313 0.59575206 -0.45494607 -0.6492638 0.1824209 -0.01896936
-0.36455798 0.042557362 0.019214245 0.028975584 0.0056652175 -0.2765908 0.56835616 -0.013476949
-0.46108022 -0.0647943 0.0023711047 -0.42594215 0.33084008 0.025155608 -0.069779165 0.3349416

layer_3.bias f4 [6]
00000000: 6f57 29bf 6828 18bf 7c40 72bf b344 13bd
00000010: 119f 463f b930 0f3f
-0.6614904 -0.59436655 -0.94629645 -0.03595419 0.77586466 0.5593372
