pytorch_models/TD3_walker_stand_0_actor.pth (torch, 531250 bytes, 6 tensors)

layer_1.weight f4 [400, 24]
-0.2944431 0.69228417 0.21522105 -0.07994293 -1.1799139 -1.2096936 -1.9635748 -0.5864868
-0.8416319 0.58588076 0.046043158 -0.78084314 -0.45018414 -0.5561989 -0.3083173 -0.32916346
1.5218178 0.43756706 -0.47019827 -0.40805763 0.42531043 0.5518492 -0.19331612 0.120755605
-1.4568931 -1.122066 -0.65847504 -0.19871134 -0.19333436 -1.2466258 -0.8414439 -0.6229916
-0.8742401 -0.30898565 -1.2225971 -0.70543456 -0.53530437 0.6756168 -1.358895 0.16361484
-1.8770318 -0.010163864 -0.13832512 -0.2118174 -0.08557555 0.11899053 0.112871826 -0.34084222
0.60677457 0.7293826 1.2152925 -0.5868529 -2.4973166 1.4360586 -0.30370137 1.8562996
-0.040205386 -1.2601476 -1.608032 -0.8393506 -0.71815693 0.18787049 -0.4544478 -0.92238593
0.36606863 0.16099146 -0.4969558 -0.2571833 0.016779646 0.059432283 0.11407174 -0.013879102
0.889802 -0.5491592 -0.87044454 2.788937 0.6820952 0.37582383 1.0402533 0.07544214
-1.7989076 1.2745855 0.64310646 -1.3310469 0.042306643 -0.51152444 -1.174564 -0.38912606
1.1245308 -0.3325095 0.009243061 0.094512284 -0.012300851 -0.2164238 0.17237464 0.17212993
0.6877401 -0.7996217 -0.17037047 0.8314628 -0.45124146 0.11552744 0.18698633 0.24341717
-0.50006026 0.069167584 -2.8549163 -0.50273657 -1.601366 -0.43475768 -0.20098493 0.37077633
0.72815865 0.6054468 -0.171726 -0.38403487 0.08270037 -0.2250523 -0.67819303 0.017449727
-1.084433 1.7313759 -1.5023452 1.368476 -2.027537 -0.35965917 -2.0624082 0.5135002
-0.71829045 1.5716549 -0.75075114 0.8579897 -0.4956847 0.5016369 -0.22326322 -1.4399908
0.46246138 0.06254069 -0.09770647 0.045389827 0.20054325 -0.21468592 0.27851877 0.099439934
-0.5305731 -2.3630567 -0.27036166 0.59149295 0.3626514 -1.1155679 -1.1835212 -1.1613272
0.18128383 0.098775886 0.50886 0.11273321 0.41612512 0.7177644 -0.17456134 0.022645969
-1.0666916 0.33548123 -0.875348 -0.11862615 -0.022094984 0.3740466 -0.09174812 -0.015785191
-0.148929 0.7664586 0.9900213 0.2409565 -0.511936 -0.8631432 -1.9675683 -0.25539118
0.23148361 0.16602188 0.67226356 -1.086659 -0.12530527 -1.8194193 0.53122425 0.891767
0.68557423 0.8519236 -0.7555885 -0.16890335 -0.16592336 0.25375295 0.38493124 0.074698284
-0.49346903 0.6425421 -0.14227743 0.67346543 -0.9836321 0.28081134 -0.79691434 0.30077437
0.834642 1.3191098 -1.7267724 -0.12756057 -0.58200556 -0.44740546 0.32462254 -0.9008493
0.6228552 0.15410359 0.0020216182 -0.33994046 0.23623787 -0.31412694 0.22360255 -0.22429521
-0.33708265 0.4660306 -0.5829621 -0.44615665 -0.08451717 0.8555986 0.5284307 0.08230315
0.76665133 1.2433356 -1.9518551 0.69905823 -0.81494963 0.5986862 -0.08273236 0.30096957
0.6907555 0.5245062 -0.27896863 -0.12780158 -0.11178662 -0.37607864 -0.05879391 -0.012570314
-0.5419221 2.6423962 0.24670486 -0.1412904 -0.5630994 -0.0812465 -0.4826324 -0.021885417
0.32561633 0.34076965 -0.18231136 1.0691946 0.10885586 0.26962173 -0.5295428 -0.653449
00000000: 3fc1 96be 8939 313f e862 5c3e 1eb9 a3bd
00000010: 6b07 97bf 3dd7 9abf 6b56 fbbf 0024 16bf
00000020: 3075 57bf 48fc 153f c097 3c3d 56e5 47bf
00000030: 897e e6be 0d63 0ebf c4db 9dbe 1d88 a8be
00000040: edca c23f ca08 e03e d4bd f0be eeec d0be
00000050: 4ac2 d93e fd45 0d3f a9f4 45be b74e f73d
00000060: 797b babf dc9f 8fbf d291 28bf fc7a 4bbe
00000070: 71f9 45be 6f91 9fbf de68 57bf 617c 1fbf
00000080: 33ce 5fbf 5e33 9ebe 107e 9cbf 5c97 34bf
00000090: b509 09bf 39f5 2c3f 45f0 adbf a68a 273e
000000a0: 9442 f0bf 5686 26bc 1aa5 0dbe a9e6 58be
000000b0: 3c42 afbd 4fb1 f33d 5829 e73d df82 aebe
000000c0: 9455 1b3f d1b8 3a3f b48e 9b3f fe3b 16bf
000000d0: 09d4 1fc0 c5d0 b73f bf7e 9bbe 3a9b ed3f
000000e0: 67ae 24bd 844c a1bf fed3 cdbf aedf 56bf
000000f0: 22d9 37bf 1f61 403e 62ad e8be 7c21 6cbf
00000100: 596d bb3e f2da 243e fe70 febe 88ad 83be
00000110: 7875 893c 446f 733d 729e e93d 2c65 63bc
00000120: 10ca 633f b395 0cbf 74d5 5ebf f27d 3240
00000130: cb9d 2e3f fb6b c03e 0527 853f 6981 9a3d
00000140: 9b42 e6bf 9e25 a33f a0a2 243f bf5f aabf
00000150: bb49 2d3d 44f3 02bf 1d58 96bf 883b c7be
00000160: a0f0 8f3f af3e aabe 3570 173c a88f c13d
00000170: 8289 49bc 339e 5dbe fa82 303e d442 303e
00000180: bc0f 303f 02b4 4cbf 9975 2ebe bfda 543f
00000190: 1f09 e7be a799 ec3d 5879 3f3e 5a42 793e
000001a0: f303 00bf bca7 8d3d f3b6 36c0 58b3 00bf
000001b0: 90f9 ccbf 8f98 debe fece 4dbe 65d6 bd3e
000001c0: 9b68 3a3f 90fe 1a3f f1d8 2fbe 38a0 c4be
000001d0: d05e a93d 1c74 66be 0f9e 2dbf bbf2 8e3c
000001e0: b3ce 8abf ba9d dd3f d94c c0bf 392a af3f
000001f0: 2bc3 01c0 3f25 b8be 7ffe 03c0 c074 033f
00000200: e2e1 37bf fd2b c93f 3a31 40bf 37a5 5b3f
00000210: 63ca fdbe 476b 003f 1d9f 64be 9e51 b8bf
00000220: bdc7 ec3e 5515 803d 541a c8bd afea 393d
00000230: 365b 4d3e a0d6 5bbe 039a 8e3e 2aa7 cb3d
00000240: a4d3 07bf 523c 17c0 d86c 8abe 156c 173f
00000250: 72ad b93e eeca 8ebf 9f7d 97bf 5fa6 94bf
00000260: 78a2 393e 034b ca3d a644 023f abe0 e63d
00000270: 5a0e d53e 68bf 373f 35c0 32be 0a84 b93c
00000280: 5a89 88bf 32c4 ab3e ce16 60bf 44f2 f2bd
00000290: 8a00 b5bc 0983 bf3e 70e6 bbbd f24f 81bc
000002a0: d880 18be a136 443f 0972 7d3f 4dbd 763e
000002b0: 3d0e 03bf f4f6 5cbf 47d9 fbbf a2c2 82be
000002c0: 0a0a 6d3e a401 2a3e 7719 2c3f a417 8bbf
000002d0: 0650 00be bbe2 e8bf 50fe 073f d84a 643f
000002e0: cb81 2f3f aa17 5a3f 3f6e 41bf 00f5 2cbe
000002f0: d0e7 29be e8eb 813e b515 c53e 6afb 983d
00000300: f9a7 fcbe a47d 243f 2db1 11be 3b68 2c3f
00000310: 50cf 7bbf 81c6 8f3e 9402 4cbf 19ff 993e
00000320: 19ab 553f 97d8 a83f e106 ddbf 3d9f 02be
00000330: 51fe 14bf 5412 e5be ed34 a63e 0f9e 66bf
00000340: 7073 1f3f 55cd 1d3e 207d 043b ad0c aebe
00000350: 57e8 713e 3fd5 a0be 11f8 643e a5ad 65be
00000360: 1996 acbe 909b ee3e 013d 15bf a56e e4be
00000370: 5717 adbd 8308 5b3f 3c47 073f 8e8e a83d
00000380: 4343 443f 9f25 9f3f 63d6 f9bf 7bf5 323f
00000390: 8aa0 50bf 8043 193f 956f a9bd af18 9a3e
000003a0: 5ad5 303f 0a46 063f fad4 8ebe 6bde 02be
000003b0: 62f0 e4bd 618d c0be e2d1 70bd b8f3 4dbc
000003c0: 68bb 0abf 051d 2940 33a0 7c3e 6eae 10be
000003d0: 4827 10bf 9164 a6bd 981b f7be 0c49 b3bc
000003e0: 2fb7 a63e 5c79 ae3e d4af 3abe 5edb 883f
000003f0: d2ef de3d dc0b 8a3e 1e90 07bf 6f48 27bf

layer_1.bias f4 [400]
-0.4571339 -0.7538234 -0.28406158 0.23285885 0.037525084 0.23655878 -0.23324382 -0.41809878
-0.6481835 -0.8964164 -0.12688994 -1.041162 -0.0043634456 0.089088075 -1.1329647 -0.1654771
-1.1036983 -0.9283831 0.20463768 0.49533427 -1.2873477 -1.344055 -1.0969772 -1.2687762
-0.3710252 -1.4651505 -0.98107433 0.1681773 -0.094623275 -0.19620895 0.49399817 -0.39820725
-0.43147182 -0.23602065 -0.86894083 0.0600976 -0.50745606 0.01683818 0.22118947 -0.49744445
-0.78457135 -0.5605114 -0.9969602 0.27479103 -0.85102856 -0.8254812 0.31017366 -0.16691011
-0.9791084 -0.87497085 1.038344 -0.3278675 -0.13857703 -0.4472691 0.6129993 -0.7440035
-0.7736503 -0.95320547 0.4246464 -1.0762761 -1.0502928 -0.34082717 -0.95674413 -0.1555806
-0.4168514 0.77265716 0.18247537 -0.81018174 -0.5274375 -0.46829522 -1.3110633 -0.20369342
-0.7073495 -0.9343244 -1.2917649 -1.2353133 -1.6521561 -0.89386463 0.37184596 -0.21991087
-0.14196886 -0.29673892 -0.44632927 -1.1898609 -1.3435078 -0.2888876 0.09243287 -0.16255361
-1.0628731 -0.08811236 -0.3853169 -0.177415 -0.20151013 -0.8234305 -1.1333668 -0.76518965
-1.0376866 -0.738067 0.51457727 -0.23752785 -0.98912424 -0.8752488 -0.30005428 0.18349934
-1.1705934 -0.33086747 -0.20153864 -0.6326545 -0.9173195 -0.5495569 -1.1847492 -0.36448485
-0.36187991 -0.16566347 -1.0562395 -1.2584218 -0.63554853 -0.70876116 -0.7607788 0.15237169
-0.40255344 -0.9880478 -0.56731457 -1.1121247 -0.20867628 -0.58443415 0.28339335 -0.15446548
0.34262246 -0.18046913 -0.13467307 -1.3327068 -0.31030077 -0.6541778 -1.1752647 0.9333423
0.10484735 -0.020441832 0.23394322 -0.37342724 -0.34333837 -0.254424 -1.5181026 -0.64126796
0.072521456 -0.36819136 -0.9213828 0.15819025 -0.7827186 -0.17870131 -0.9335106 -0.0658365
-0.27105057 -0.5120986 -0.9655839 0.15543135 -0.5637611 -0.8343103 -0.5614674 -0.26394057
-0.1611237 -0.5888588 -0.3014004 -0.38396332 -0.95371974 0.04869766 -0.21607812 -0.65199697
-0.3867883 -0.48879448 -0.40010533 -0.9449865 -0.10135508 -0.32343438 0.20018978 0.5716559
-0.8783611 -0.15401466 -1.0940131 -0.31644195 -0.4558657 -0.16256906 -0.10363218 -1.1527802
-0.36248 -0.8831197 -0.9403581 -1.4531599 -0.23269562 -0.30997387 -0.08281122 -0.033932555
0.2783487 -0.26235893 -0.49084777 -0.32025838 -0.46714097 -1.1680119 0.055393603 -0.19052376
-0.73330474 -0.32136434 -0.39021757 -1.2399856 -0.64734954 -1.1762224 0.70016056 -0.08379598
0.22050712 -1.047934 -0.16411789 -0.5959437 -1.0318753 -0.0303071 -0.018123316 -0.42807484
0.0153519325 -1.1112149 -0.55681854 -0.55458206 -1.0584383 -0.6948428 -0.2708406 -0.8804
0.15899277 -1.1624097 -0.0014533701 -0.6339005 -0.9194413 -0.87889326 -0.58643216 0.22411206
-0.5553978 -0.7908537 -0.6556749 -0.60007036 -0.08619667 -0.7378501 0.06831196 -0.84661776
-0.22310388 -0.30879354 -1.0765612 -0.7114337 -0.0839541 -1.1324604 -0.13944049 -0.13307673
-0.66911155 -0.8779101 -0.322274 -0.41515985 -0.34312555 -1.0241684 -0.65391725 -0.5640741
00000000: 740d eabe 92fa 40bf 8570 91be 8d72 6e3e
00000010: e7b3 193d 773c 723e 78d7 6ebe 0b11 d6be
00000020: 5bef 25bf 8c7b 65bf 70ef 01be cc44 85bf
00000030: 3cfb 8ebb cf73 b63d fd04 91bf d472 29be
00000040: fc45 8dbf 84aa 6dbf 8a8c 513e 749c fd3e
00000050: cfc7 a4bf ff09 acbf c069 8cbf 4267 a2bf
00000060: 04f7 bdbe 0d8a bbbf b027 7bbf ac36 2c3e
00000070: d9c9 c1bd 00eb 48be 54ed fc3e d2e1 cbbe
00000080: e0e9 dcbe 66af 71be e872 5ebf e728 763d
00000090: a4e8 01bf 39f0 893c 7e7f 623e 0ab1 febe
000000a0: abd9 48bf ad7d 0fbf c938 7fbf 69b1 8c3e
000000b0: 02dd 59bf bc52 53bf 15cf 9e3e 7cea 2abe
000000c0: d9a6 7abf 17fe 5fbf 75e8 843f 40de a7be
000000d0: 23e7 0dbe 7500 e5be 86ed 1c3f 0377 3ebf
000000e0: f20d 46bf 4605 74bf 416b d93e 6ac3 89bf
000000f0: ff6f 86bf e680 aebe 2fed 74bf 8550 1fbe
00000100: 8c6d d5be dccc 453f d3da 3a3e 1268 4fbf
00000110: 2506 07bf 64c4 efbe ecd0 a7bf 0295 50be
00000120: db14 35bf e22f 6fbf 8d58 a5bf bf1e 9ebf
00000130: da79 d3bf 50d4 64bf 9862 be3e 5130 61be
00000140: 4960 11be 2aee 97be 4585 e4be 5d4d 98bf
00000150: 10f8 abbf 13e9 93be 724d bd3d 7474 26be
00000160: 3a0c 88bf 4174 b4bd 4248 c5be 47ac 35be
00000170: ac58 4ebe 57cc 52bf 2a12 91bf 78e3 43bf
00000180: ead2 84bf f5f1 3cbf 56bb 033f 803a 73be
00000190: 3f37 7dbf 4e10 60bf b7a0 99be 40e7 3b3e
000001a0: 01d6 95bf 7667 a9be 2560 4ebe a5f5 21bf
000001b0: 73d5 6abf c3af 0cbf dda5 97bf c29d babe
000001c0: 5348 b9be afa3 29be db32 87bf f713 a1bf
000001d0: 4fb3 22bf 5f71 35bf 66c2 42bf 5307 1c3e
000001e0: 7c1b cebe b3f0 7cbf 873b 11bf 1a5a 8ebf
000001f0: 3caf 55be 7a9d 15bf ef18 913e 332c 1ebe
00000200: 366c af3e e6cc 38be bde7 09be 2396 aabf
00000210: bedf 9ebe 3278 27bf 136f 96bf 85ef 6e3f
00000220: 35ba d63d a175 a7bc d08e 6f3e db31 bfbe
00000230: 0cca afbe dd43 82be 3051 c2bf 232a 24bf
00000240: 2186 943d 9483 bcbe bedf 6bbf a0fc 213e
00000250: 3f60 48bf 7afd 36be 8dfa 6ebf 49d5 86bd
00000260: 24c7 8abe e518 03bf 8230 77bf 6529 1f3e
00000270: a652 10bf 5c95 55bf 54bc 0fbf 3823 87be
00000280: 9cfd 24be 73bf 16bf 2751 9abe d796 c4be
00000290: fa26 74bf 3377 473d 9543 5dbe 46e9 26bf
000002a0: 1e09 c6be 4543 fabe 9bda ccbe a3ea 71bf
000002b0: 4193 cfbd 3199 a5be 8dfe 4c3e 0b58 123f
000002c0: 46dc 60bf 05b6 1dbe 9f08 8cbf ae04 a2be
000002d0: 3b67 e9be 8178 26be 1c3d d4bd 4d8e 93bf
000002e0: fb96 b9be 2214 62bf 4fbb 70bf 2501 babf
000002f0: c347 6ebe e5b4 9ebe ee98 a9bd ddfc 0abd
00000300: b983 8e3e e953 86be 6650 fbbe e8f8 a3be
00000310: 1a2d efbe 6a81 95bf 67e4 623d a918 43be
00000320: dcb9 3bbf de89 a4be 99ca c7be d9b7 9ebf
00000330: b3b8 25bf 758e 96bf b93d 333f 3a9d abbd
00000340: 9ecc 613e b422 86bf 850e 28be c48f 18bf
00000350: 7d14 84bf 9846 f8bc 5977 94bc a02c dbbe
00000360: ac86 7b3c 4a3c 8ebf a98b 0ebf 17f9 0dbf
00000370: e87a 87bf 38e1 31bf 9eab 8abe e561 61bf
00000380: 00cf 223e d7c9 94bf 027f beba 4e47 22bf
00000390: 8160 6bbf 26ff 60bf 6b20 16bf a27d 653e
000003a0: 8d2e 0ebf 6375 4abf 4fda 27bf 369e 19bf
000003b0: e187 b0bd bfe3 3cbf 24e7 8b3d f1bb 58bf
000003c0: 5875 64be 301a 9ebe c2cc 89bf 8520 36bf
000003d0: 21f0 abbd 76f4 90bf 7dc9 0ebe 4445 08be
000003e0: e54a 2bbf b7be 60bf 1901 a5be d58f d4be
000003f0: 27ae afbe f317 83bf 1f67 27bf 2967 10bf

layer_2.weight f4 [300, 400]
0.029575009 -0.032665767 -0.0476198 -0.014584029 -0.027459113 -0.06242443 -0.0725866 0.007067691
-0.14522023 -0.091983035 -0.037652355 -0.055258255 -0.1407439 -0.036281787 0.110038556 -0.046492033
-0.03422008 0.111801155 -0.021245902 0.037760753 -0.005042563 -0.024549019 -0.017287489 0.015127273
-0.01778496 -0.073341645 0.05654635 0.022877336 -0.009989879 -0.052436303 -0.04598245 -0.05412343
0.05913212 -0.11278677 -0.045533124 -0.06839394 -0.050262704 -0.067243956 -0.02912913 -0.021123452
-0.065782145 0.05862913 -0.011468162 0.066185825 -0.08029547 -0.0013325973 -0.13884814 -0.01697025
-0.006722911 0.007929692 -0.07587289 -0.20650057 -0.046698377 -0.02153114 -0.078439526 0.0115624145
-0.012603469 0.009936464 -0.104519695 0.011710016 -0.14369923 -0.012313643 -0.00096225017 -0.065121055
-0.100563094 -0.008885258 -0.16711146 0.07341307 -0.051163528 -0.09805314 -0.023685172 -0.037600096
-0.021344978 0.047639944 0.053394087 -0.106774166 -0.035332244 -0.06399936 -0.109438166 -0.024274258
-0.09026611 -0.0008260361 -0.080324724 -0.027463205 -0.027996017 0.0082498975 0.06289737 -0.07338399
0.048586614 -0.08729806 -0.075450145 0.032544624 -0.11336112 -0.053628065 -0.08228047 -0.05272186
-0.061727498 -0.13016127 -0.117981635 -0.010377917 -0.057527915 -0.08649143 -0.13156016 -0.12349288
-0.12391033 -0.13347396 0.015652534 -0.011337064 -0.11044416 -0.023782128 0.06732217 0.07940429
-0.026568003 -0.01654151 0.08748185 -0.035832554 -0.04529083 0.0017314747 -0.05206664 -0.11946538
-0.03439279 -0.04669566 0.048985247 -0.053468857 -0.041203786 0.027182253 -0.045291178 -0.024697749
-0.1361274 -0.11748654 0.05601932 -0.15195806 -0.0909115 0.062463723 0.01896037 -0.09396833
-0.08234332 -0.010759896 -0.014451736 -0.11487471 -0.013295399 0.07810132 0.045531303 -0.10289887
0.02501931 -0.077459924 -0.05302781 -0.012118975 -0.10621978 -0.0144971255 -0.051398814 -0.008605461
0.038830187 -0.053324442 0.01392544 -0.05389235 -0.18836793 0.020547776 -0.023390977 -0.032739483
-0.1384622 -0.019131267 0.013388333 -0.019278903 -0.00033864984 0.040057514 -0.022058966 -0.016608994
-0.058058918 0.037602294 -0.1446375 0.03678345 -0.05923077 -0.12510233 -0.052445307 0.032843895
0.045893695 -0.09546448 -0.06375692 0.0071579856 -0.026882546 -0.11632851 -0.026431829 -0.022952959
0.035493862 0.024163058 0.077233516 0.01717509 -0.018406449 -0.07507284 0.0101535935 0.034825984
0.044158876 -0.079733215 -0.02318976 -0.051056057 -0.06261815 0.13531443 -0.018227758 -0.08338997
-0.076965205 -0.07103482 -0.036646318 0.04621948 -0.055090107 -0.07543123 -0.09538462 -0.0012443815
-0.05795771 -0.015157334 -0.035123337 -0.025575077 -0.067855984 -0.12397079 -0.15026593 -0.060987003
-0.019633934 -0.09520721 -0.16069983 -0.07530329 -0.16218582 0.041128293 -0.04881122 -0.02605894
-0.14886975 -0.03521753 -0.11733373 0.05095553 -0.12537873 -0.073091306 -0.03742428 -0.001444122
-0.046210457 0.04712839 -0.031582274 -0.0165361 -0.050930265 -0.017673312 0.005875903 0.027684076
-0.040668156 0.039690778 -0.05122906 0.0033184465 0.012138661 -0.11267685 -0.04697341 -0.15179422
-0.020772181 -0.033966932 -0.08079345 0.0588882 0.049409766 0.04636576 0.03068001 -0.08875227
00000000: 4a47 f23c 8acc 05bd fb0c 43bd daf1 6ebc
00000010: eff1 e0bc c2b0 7fbd 49a8 94bd 1798 e73b
00000020: 9db4 14be 9a61 bcbd 5b39 1abd 7b56 62bd
00000030: 2b1f 10be 369c 14bd e55b e13d 6e6e 3ebd
00000040: 5b2a 0cbd 01f8 e43d e30b aebc 05ab 1a3d
00000050: 163c a5bb 061b c9bc 7e9e 8dbc 62d8 773c
00000060: c4b1 91bc 2534 96bd 259d 673d 4069 bb3c
00000070: 97ac 23bc 73c7 56bd 1858 3cbd 88b0 5dbd
00000080: 8634 723d c0fc e6bd f180 3abd 1f12 8cbd
00000090: 44e0 4dbd 33b7 89bd 37a0 eebc 170b adbc
000000a0: cab8 86bd 1925 703d f5e4 3bbc 6f8c 873d
000000b0: f471 a4bd 8caa aeba 352e 0ebe 3205 8bbc
000000c0: dd4b dcbb 8aeb 013c 3f63 9bbd e374 53be
000000d0: cc46 3fbd 1362 b0bc e7a4 a0bd 4870 3d3c
000000e0: c87e 4ebc 8dcc 223c 6c0e d6bd 5edb 3f3c
000000f0: e425 13be 29bf 49bc 843f 7cba 305e 85bd
00000100: 06f4 cdbd 7993 11bc 441f 2bbe 9759 963d
00000110: d990 51bd 16d0 c8bd 6807 c2bc 8f02 1abd
00000120: aadb aebc 1a22 433d c2b3 5a3d 6aac dabd
00000130: 8bb8 10bd 1912 83bd 1e21 e0bd cfda c6bc
00000140: 70dd b8bd 588a 58ba 4a81 a4bd 84fa e0bc
00000150: e757 e5bc 942a 073c 56d0 803d 584a 96bd
00000160: c202 473d 53c9 b2bd 9b85 9abd 834d 053d
00000170: e029 e8bd 1aa9 5bbd aa82 a8bd e1f2 57bd
00000180: f9d5 7cbd ff48 05be 5ba0 f1bd 2408 2abc
00000190: 64a2 6bbd 6b22 b1bd b5b7 06be d6e9 fcbd
000001a0: b3c4 fdbd 66ad 08be be39 803c 18bf 39bc
000001b0: 8c30 e2bd bdd2 c2bc 35e0 893d b79e a23d
000001c0: 24a5 d9bc 1082 87bc af29 b33d 28c5 12bd
000001d0: e182 39bd a6f2 e23a d443 55bd 44aa f4bd
000001e0: 74df 0cbd f343 3fbd c1a4 483d 2902 5bbd
000001f0: 4dc5 28bd 51ad de3c 3e83 39bd ef52 cabc
00000200: fb64 0bbe c89c f0bd 8474 653d e59a 1bbe
00000210: cf2f babd f6d9 7f3d c752 9b3c 7872 c0bd
00000220: 9da3 a8bd 464a 30bc f9c6 6cbc 6f43 ebbd
00000230: f2d4 59bc 96f3 9f3d 087f 3a3d a5bc d2bd
00000240: 4cf5 cc3c 4fa3 9ebd b033 59bd aa8e 46bc
00000250: c289 d9bd 5a85 6dbc 9087 52bd ebfd 0cbc
00000260: 670c 1f3d bb6a 5abd 8727 643c 3abe 5cbd
00000270: 86e3 40be cf53 a83c 6f9e bfbc d619 06bd
00000280: 09c9 0dbe 2db9 9cbc bd5a 5b3c caee 9dbc
00000290: d08c b1b9 5913 243d 01b5 b4bc 960f 88bc
000002a0: 30cf 6dbd dd04 1a3d da1b 14be 3eaa 163d
000002b0: f79b 72bd d31a 00be e4d0 56bd 5287 063d
000002c0: 07fb 3b3d e282 c3bd fd92 82bd 898d ea3b
000002d0: c938 dcbc a43d eebd 9087 d8bc d807 bcbc
000002e0: 0362 113d 9bf1 c53c 9b2c 9e3d c6b2 8c3c
000002f0: 1fc9 96bc cabf 99bd 425b 263c b1a5 0e3d
00000300: f0df 343d 2b4b a3bd 74f8 bdbc 2820 51bd
00000310: f23d 80bd de8f 0a3e 6152 95bc 5cc8 aabd
00000320: ef9f 9dbd b47a 91bd 731a 16bd a350 3d3d
00000330: 2aa6 61bd b07b 9abd 0359 c3bd 841a a3ba
00000340: 1065 6dbd 7756 78bc 7ddd 0fbd d382 d1bc
00000350: 14f8 8abd 66e4 fdbd 50df 19be 82cd 79bd
00000360: 58d7 a0bc fffb c2bd 7f8e 24be 9c38 9abd
00000370: 0a14 26be 2476 283d 46ee 47bd 8f79 d5bc
00000380: 5071 18be 4240 10bd ab4c f0bd bfb6 503d
00000390: 4863 00be e5b0 95bd 344a 19bd b248 bdba
000003a0: 2d47 3dbd b309 413d 6a5c 01bd b776 87bc
000003b0: 419c 50bd 9fc7 90bc a68a c03b b7c9 e23c
000003c0: a793 26bd cc92 223d 90d5 51bd 4b7a 593b
000003d0: 3ce1 463c 1fc3 e6bd 3167 40bd f26f 1bbe
000003e0: 6c2a aabc e920 0bbd 0977 a5bd c134 713d
000003f0: e561 4a3d 06ea 3d3d a554 fb3c c0c3 b5bd

layer_2.bias f4 [300]
-0.08792773 -0.4026443 -0.01118258 -0.43407953 -0.5234492 -0.883142 -0.0278895 -0.7327621
-0.22396074 -0.08197501 -0.36854392 0.21598491 -0.10839558 -0.13786899 -0.31828237 -0.21890242
-0.73709226 -0.23691526 -0.019938612 -0.10028294 -0.49412704 -0.06102027 -0.06452772 -0.1396549
-0.39618054 0.0054536676 -0.020631216 -0.7113592 -0.022748379 -0.24551979 0.21234147 -0.6590635
-0.0038439836 -0.35375002 -0.04907623 0.26673824 -0.06269073 0.3012818 -0.7447299 -0.30381933
-0.3447049 -0.80197304 -0.47835937 0.025069028 -0.045192447 -0.08260474 0.025593532 -0.07551925
-0.26011965 -0.12634826 -0.81469154 -0.04002753 -0.31358504 -0.08116713 -0.06254845 -0.115669794
-0.02854901 -0.76972806 0.18234298 -0.4941281 -0.119034946 -0.05869611 -0.13331865 -0.08841089
-0.38903826 -0.13739695 -0.32912254 -0.35166815 -0.102062814 -0.47858554 -0.02045884 -0.099720486
-0.26116 -0.025708113 -0.078103684 -0.02950311 -0.068368435 -0.039923254 -0.33398077 0.40031487
-0.11775826 -0.28841895 -0.39647475 -0.18712367 -0.069997706 -0.7545251 -0.022244638 -0.045384966
-0.11226629 -0.479329 -0.059387773 -0.11869765 -0.25836563 -0.08016965 -0.11010587 -0.36192107
-0.36857694 0.0424963 -0.3602011 0.11212096 -0.24828406 -0.579468 -0.09895342 -0.5789922
-0.18573351 0.2822161 -0.0737919 -0.1260226 -0.45059443 -0.2617819 0.038048018 -0.01647851
-0.022711385 -0.048943117 -0.30162588 -0.41701505 0.24550141 -0.3270635 -0.39929247 -0.44716102
-0.11993011 -0.18023792 -0.3110116 0.1968101 -0.097697124 -0.3192755 -0.65357745 -0.13388291
-0.03758263 0.015617622 0.036114734 -0.030835718 -0.2550739 -0.08549676 -0.23210815 -0.27824172
-0.06410464 -0.3609288 -0.23212482 0.07783656 -0.016768385 -0.17075613 0.36289144 -0.1035135
0.18961893 -0.02600613 -0.29450375 -1.0551668 -0.039095607 -0.35554856 0.023508614 -0.36917433
0.14803475 -0.45018303 -0.30722198 -0.6179501 0.49708357 -0.17343837 0.011746412 0.12692855
-0.93217796 -0.14372464 -0.29223746 0.041904397 -0.2987869 -0.21490896 -0.028667465 0.286385
-0.12105055 -0.45326847 -0.2872293 -0.006865176 -0.17353308 -0.31598294 0.051143683 -0.031411935
-0.0092434175 -0.14397596 -0.07712742 0.107483126 -0.0505051 0.07959409 -0.4381882 0.007760605
-0.104040414 -0.20342265 -0.31597972 -0.28884545 -0.2123467 -0.49073246 -0.3110597 0.3332778
0.08478207 -0.05597976 -0.044385094 -0.10463198 -0.048183687 0.114849634 -0.28505686 -0.08583781
-0.024758663 -0.058449395 -0.12311603 -0.012004681 -0.2672026 -0.32071218 -0.111432895 -0.5878237
-0.28601688 -0.040276892 -0.9224673 -0.25702038 -0.04824217 -0.15247911 -0.07724086 -0.050500594
-0.30330986 -0.6786441 -0.43603745 -0.57336915 0.2831667 -0.0630393 -0.45680547 0.037112195
0.011766333 -0.53041816 -0.025023539 -0.056162808 -0.057247207 0.07187031 0.43791124 0.1652446
-0.0836991 0.0058054146 -0.03126507 -0.18106507 -0.6304091 -0.30025423 -0.086863205 -0.48053446
-0.0048350794 -0.056534782 -0.12472446 -0.16839656 -0.017980453 0.08941385 0.24003915 -0.71106136
-0.6288363 0.18440524 -0.012724378 -0.12279171 0.5590724 0.0024390526 -0.12911767 -0.24232507
00000000: 7413 b4bd 6527 cebe 2437 37bc ac3f debe
00000010: c400 06bf 9815 62bf 8578 e4bc 4c96 3bbf
00000020: f755 65be 84e2 a7bd cab1 bcbe 262b 5d3e
00000030: 80fe ddbd 872d 0dbe e8f5 a2be f527 60be
00000040: 14b2 3cbf ea99 72be 4d56 a3bc 2461 cdbd
00000050: 38fe fcbe 64f0 79bd 1c27 84bd b201 0fbe
00000060: 2dd8 cabe aeb4 b23b cc02 a9bc a31b 36bf
00000070: cf5a babc 8a69 7bbe 0b70 593e 63b8 28bf
00000080: 58eb 7bbb b91e b5be 2804 49bd ea91 883e
00000090: ff63 80bd 9c41 9a3e 9ea6 3ebf 358e 9bbe
000000a0: 297d b0be 1b4e 4dbf 85eb f4be 905d cd3c
000000b0: b71b 39bd ad2c a9bd 87a9 d13c d6a9 9abd
000000c0: 672e 85be 7061 01be a08f 50bf e8f3 23bd
000000d0: 388e a0be f43a a6bd 6719 80bd 49e4 ecbd
000000e0: 9ddf e9bc e60c 45bf 1eb8 3a3e 5cfe fcbe
000000f0: 98c8 f3bd 556b 70bd af84 08be c510 b5bd
00000100: 0630 c7be c9b1 0cbe c082 a8be d90d b4be
00000110: 4f06 d1bd 2a09 f5be 4c99 a7bc 413a ccbd
00000120: c3b6 85be d299 d2bc d3f4 9fbd 82b0 f1bc
00000130: c004 8cbd 9186 23bd 87ff aabe 12f6 cc3e
00000140: 3e2b f1bd a6ab 93be bdfe cabe 599d 3fbe
00000150: f55a 8fbd 8f28 41bf 633a b6bc 96e5 39bd
00000160: deeb e5bd 9c6a f5be 9840 73bd c117 f3bd
00000170: 8048 84be fc2f a4bd 307f e1bd b84d b9be
00000180: 1eb6 bcbe 9a10 2e3d 476c b8be ad9f e53d
00000190: 2d3e 7ebe 0458 14bf 17a8 cabd d538 14bf
000001a0: ed30 3ebe a17e 903e 3520 97bd 120c 01be
000001b0: 50b4 e6be 4708 86be 3dd8 1b3d f1fd 86bc
000001c0: 3a0d babc 9478 48bd b56e 9abe ff82 d5be
000001d0: b964 7b3e de74 a7be 1070 ccbe 4af2 e4be
000001e0: eb9d f5bd 4a90 38be ea3c 9fbe 9688 493e
000001f0: 6e15 c8bd 1478 a3be da50 27bf 9a18 09be
00000200: 3ef0 19bd 0ee1 7f3c 0bed 133d 309b fcbc
00000210: 0c99 82be ed18 afbd c2ad 6dbe b375 8ebe
00000220: 4b49 83bd a9cb b8be 21b2 6dbe c668 9f3d
00000230: da5d 89bc b2da 2ebe e8cc b93e e3fe d3bd
00000240: 772b 423e cf0a d5bc 32c9 96be b50f 87bf
00000250: b722 20bd 760a b6be 2395 c03c 6b04 bdbe
00000260: 6c96 173e 647e e6be 334c 9dbe fa31 1ebf
00000270: bd81 fe3e d499 31be 0674 403c 8ff9 013e
00000280: 37a3 6ebf 8d2c 13be 26a0 95be f2a3 2b3d
00000290: 99fa 98be 1811 5cbe 08d8 eabc 0ea1 923e
000002a0: 5ae9 f7bd ce12 e8be b80f 93be 45f5 e0bb
000002b0: a8b2 31be 84c8 a1be 0a7c 513d cda9 00bd
000002c0: b471 17bc 6f6e 13be fbf4 9dbd 1d20 dc3d
000002d0: 70de 4ebd 3a02 a33d 345a e0be ac4c fe3b
000002e0: 2413 d5bd 074e 50be 18c8 a1be 8de3 93be
000002f0: 6a71 59be 4941 fbbe 3843 9fbe 63a3 aa3e
00000300: 39a2 ad3d 084b 65bd 25cd 35bd 4b49 d6bd
00000310: 425c 45bd 4936 eb3d f9f2 91be bccb afbd
00000320: aed2 cabc a268 6fbd 4224 fcbd 48af 44bc
00000330: c7ce 88be 6334 a4be ee36 e4bd 9d7b 16bf
00000340: ce70 92be 62f9 24bd d126 6cbf 2d98 83be
00000350: 9599 45bd 7c23 1cbe 7530 9ebd b6d9 4ebd
00000360: 6e4b 9bbe 9fbb 2dbf 4d40 dfbe 52c8 12bf
00000370: 3afb 903e c01a 81bd 68e2 e9be f502 183d
00000380: 94c7 403c 7cc9 07bf 2afe ccbc f90a 66bd
00000390: 0c7c 6abd be30 933d e735 e03e e135 293e
000003a0: 6f6a abbd 593b be3b cd0f 00bd 1f69 39be
000003b0: 7e62 21bf ecba 99be 56e5 b1bd 9d08 f6be
000003c0: 966f 9ebb 0491 67bd 8a6f ffbd 2670 2cbe
000003d0: be4b 93bc 9c1e b73d d3cc 753e 1e08 36bf
000003e0: 6afb 20bf bad4 3c3e e979 50bc 387a fbbd
000003f0: 5e1f 0f3f 83d8 1f3b 6c37 04be 1024 78be

layer_3.weight f4 [6, 300]
0.00028340335 -0.9013101 0.0047236094 -0.311623 0.18477564 0.39247018 0.06252589 0.014314624
0.025771447 0.12462884 1.9080101 -1.0235231 -0.172302 1.2532551 -0.6552375 0.35135713
-0.51453245 1.1878328 0.118170574 0.016672134 0.9693686 -0.5508184 0.033229303 0.87828743
-0.514794 -0.010297848 -0.04699807 0.24951276 -0.009342292 0.10603383 -0.6606143 -0.2119055
-0.34415445 0.07698708 0.029028889 -0.3700186 -0.0026284528 -0.16033702 -0.42950767 0.19525959
-0.37522176 -0.29350394 -0.629805 0.5062691 0.65141666 -0.012295243 -0.35506922 -0.044385627
0.2167727 0.82558864 -0.22299613 0.040008195 1.1129055 -0.36164457 0.46911126 -0.0727817
-0.011865418 0.035099253 -0.5421884 0.12025533 0.23320657 -0.06318694 -0.0474721 0.83902043
0.40520537 -0.03921924 0.10710935 0.25513864 0.5425442 -0.51494944 0.0055108643 0.03307937
-0.8789476 -0.017725758 0.9878937 0.11306115 0.57383114 0.008958262 0.08015657 -0.4832571
0.023055827 0.82676923 -0.34485686 -0.33529478 0.004044196 -0.39159426 1.1916246 -0.014880303
0.028377542 0.3022915 -0.012655964 -0.45246765 -0.06911423 -0.6362181 -0.034787618 -0.022964856
0.0046696314 -0.6095354 0.0053564305 0.77266145 0.4947704 0.287539 0.8909056 -0.43599492
0.02376931 0.060493745 -0.57425797 -0.591873 0.35776967 -0.54752755 0.015679501 -0.7402189
-0.26980704 0.019569544 -0.33132643 0.15657277 0.54338276 -0.16767822 0.6393597 1.0389003
0.004653892 -0.047398143 0.05767003 -0.13103358 -0.51001745 0.60564154 0.9789904 -0.023452625
-0.16239968 0.035680972 -0.026857592 -0.013017531 0.17336121 0.107534245 0.4934671 -0.6975625
0.0024482377 -0.70848256 -0.08744066 -0.59215295 0.09509897 0.6677751 -0.8678385 -0.015736919
-0.12748815 -0.040135358 1.131329 -0.33820903 0.030912897 -0.13834217 0.040308125 0.29989958
-0.7382581 -1.5542082 -1.0489607 -0.86329985 -0.732404 -0.019314209 -0.003916738 0.77669895
-0.011570363 -0.32704884 -0.48908475 0.21703674 -1.1432881 0.6707067 0.02004171 -0.17005675
-0.11852615 -0.101808675 -0.11464126 0.015777696 -0.7221315 0.37554052 -0.7678804 -0.022859786
-0.038032487 0.06372381 0.040918313 -0.8763973 1.1427616 0.6976505 0.9019663 -0.0012493263
-0.0001112743 0.01812811 0.8036138 -0.164252 0.112703405 -0.015102847 0.85598814 -0.38622314
0.16035065 0.050464462 1.0225375 -0.061882857 -0.012056818 -0.5065295 -0.14528766 0.007577039
1.6467271 -0.0016012772 -0.006653306 0.010825658 0.2152002 0.19957393 0.020812184 -0.33467683
-0.15596856 0.10155993 0.097859964 -0.18341212 0.0077610128 0.06720715 -0.03148439 -0.07246217
-1.513355 0.36523423 0.8754904 -0.94685715 -0.21952218 -0.012340481 1.0620744 -0.28308523
0.5377098 -0.61359644 0.039090734 -0.056304708 0.018141277 -0.53534806 -0.030309878 0.071370214
0.03544316 0.21012564 0.0445552 0.00686865 -0.86700726 0.40875414 0.009761836 0.043834623
0.4190437 0.76529956 -0.08749108 -0.09048846 0.007950107 -0.36217743 -0.39075428 -0.43369222
0.52987593 -0.2314256 0.3327282 0.021752072 -1.3031667 0.04679558 0.6364147 -0.03961415
00000000: c195 9439 42bc 66bf 82c8 9a3b 0d8d 9fbe
00000010: d335 3d3e daf1 c83e 930d 803d e287 6a3c
00000020: a41e d33c 683d ff3d ad39 f43f ce02 83bf
00000030: ef6f 30be aa6a a03f a5bd 27bf 15e5 b33e
00000040: 66b8 03bf e80a 983f 6a03 f23d 0094 883c
00000050: 8a28 783f 6f02 0dbf 731b 083d 72d7 603f
00000060: 8ac9 03bf 4eb8 28bc 0c81 40bd 4680 7f3e
00000070: 6a10 19bc 4428 d93d 051e 29bf c1fd 58be
00000080: 0335 b0be 67ab 9d3d fecd ed3c 1473 bdbe
00000090: 1f42 2cbb 632f 24be 6ee8 dbbe 21f2 473e
000000a0: 111d c0be 2646 96be e73a 21bf da9a 013f
000000b0: 3ec3 263f fd71 49bc a2cb b5be b4cd 35bd
000000c0: aaf9 5d3e c759 533f 1959 64be a2df 233d
000000d0: b073 8e3f 7a29 b9be 5a2f f03e 920e 95bd
000000e0: 2c67 42bc 3cc4 0f3d dccc 0abf 6d48 f63d
000000f0: b4cd 6e3e 2868 81bd 1b72 42bd 0bca 563f
00000100: 1477 cf3e 5ba4 20bd 265c db3d 88a1 823e
00000110: 2de4 0a3f bad3 03bf 7b94 b43b 3c7e 073d
00000120: b602 61bf 9c35 91bc 9ae6 7c3f 9b8c e73d
00000130: 99e6 123f adc5 123c 2129 a43d 7a6d f7be
00000140: 93df bc3c 26a7 533f 1491 b0be c2ab abbe
00000150: 2d85 843b 0b7f c8be 2887 983f 84cc 73bc
00000160: 0578 e83c f4c5 9a3e f65a 4fbc d7a9 e7be
00000170: c38b 8dbd 30df 22bf 767d 0ebd cb20 bcbc
00000180: b503 993b 830a 1cbf ff84 af3b 24cd 453f
00000190: 8c52 fd3e 5038 933e 6412 643f ba3a dfbe
000001a0: dbb7 c23c 4ac8 773d 9202 13bf fd84 17bf
000001b0: 962d b73e c42a 0cbf 4c72 803c fc7e 3dbf
000001c0: 2624 8abe 4f50 a03c 9ea3 a9be 9d54 203e
000001d0: 221b 0b3f d7b3 2bbe 14ad 233f affa 843f
000001e0: ad7f 983b 8e24 42bd 6937 6c3d ab2d 06be
000001f0: 8190 02bf 530b 1b3f 1d9f 7a3f b81f c0bc
00000200: 1a4c 26be 3626 123d 7404 dcbc 7b47 55bc
00000210: 9a85 313e ea3a dc3d b8a7 fc3e 7593 32bf
00000220: 9d72 203b 1d5f 35bf 1714 b3bd 5697 17bf
00000230: 40c3 c23d 4ff3 2a3f aa2a 5ebf b6ea 80bc
00000240: 418c 02be f964 24bd 64cf 903f bc29 adbe
00000250: 0b3d fd3c 92a9 0dbe 221a 253d 708c 993e
00000260: 7cfe 3cbf 4bf0 c6bf 5844 86bf 3801 5dbf
00000270: d47e 3bbf d538 9ebc fb57 80bb bed5 463f
00000280: 9f91 3dbc f272 a7be 5169 fabe e13e 5e3e
00000290: 4457 92bf 6fb3 2b3f 832e a43c 5b23 2ebe
000002a0: d7bd f2bd 1181 d0bd 09c9 eabd 3a40 813c
000002b0: 9cdd 38bf d946 c03e cf93 44bf 7244 bbbc
000002c0: f4c7 1bbd a181 823d f699 273d 935b 60bf
000002d0: 0346 923f 3999 323f 43e7 663f 6fc0 a3ba
000002e0: ef5b e9b8 6781 943c a2b9 4d3f ad31 28be
000002f0: 0bd1 e63d ee71 77bc 0a22 5b3f 0abf c5be
00000300: f632 243e d3b3 4e3d 82e2 823f e178 7dbd
00000310: f689 45bc ebab 01bf 4ac6 14be cf48 f83b
00000320: f4c7 d23f f2e1 d1ba fa03 dabb 1a5e 313c
00000330: 715d 5c3e 1c5d 4c3e 507e aa3c c35a abbe
00000340: 39b6 1fbe a7fe cf3d ce6a c83d 63d0 3bbe
00000350: 1850 fe3b e7a3 893d c7f5 00bd 0c67 94bd
00000360: 9eb5 c1bf fbff ba3e 2420 603f 3b65 72bf
00000370: 6cca 60be bb2f 4abc 0ef2 873f 8cf0 90be
00000380: 59a7 093f a814 1dbf 9b1d 203d c49f 66bd
00000390: 049d 943c 920c 09bf 6c4c f8bc 8c2a 923d
000003a0: d92c 113d 2d2b 573e 837f 363d 6a12 e13b
000003b0: 30f4 5dbf 3948 d13e 1cf0 1f3c ef8b 333d
000003c0: e58c d63e acea 433f 862e b3bd 0452 b9bd
000003d0: 2a41 023c 526f b9be f210 c8be e80c debe
000003e0: f3a5 073f d5fa 6cbe 5a5b aa3e 6731 b23c
000003f0: 2bce a6bf b9ac 3f3d 13ec 223f 7242 22bd

layer_3.bias f4 [6]
-0.57697195 0.21227264 -0.096668676 -0.27938876 0.5896932 0.2795411
00000000: 6fb4 13bf 005e 593e 3afa c5bd 0b0c 8fbe
00000010: 22f6 163f 0320 8f3e
